dddqn_tournament_model.pth (torch, 179986 bytes, 11 tensors)

feature_network.0.weight f4 [64, 18]
000000 36 d9 11 be 3d 7f b0 bd 36 f0 46 be da 7e a0 3d
       -0.14243016 -0.08618019 -0.1942757 0.07836695
000010 46 dc 92 3d 08 e9 65 3b fc f3 31 3f 97 c9 ad 3e
       0.0717092 0.0035081524 0.69512916 0.33942863
000020 8e e0 71 3e 5d cf d8 bd ba 96 b4 3d 33 37 26 3b
       0.23620817 -0.105864264 0.08817811 0.002536249
000030 08 74 46 3e a8 c6 48 3f df c9 87 3d a6 2b 45 3d
       0.193802 0.78428125 0.06630301 0.04813733
000040 da 26 bc ba b6 ae 88 3d 52 27 3e be 33 ff 02 3d
       -0.001435484 0.066739485 -0.18569687 0.03198166
000050 3d 54 4f 3e 22 e7 24 bb 5b d7 4e 3d 97 4a 9b 3c
       0.20246978 -0.002516218 0.050498348 0.018956466
000060 3b 82 2e bf 1a 80 5b bf 4c 5b db bd 30 7e 99 bd
       -0.68167466 -0.8574234 -0.10710773 -0.074947715
000070 68 e9 a3 bd ac d3 51 bc f3 dd fc bd c3 12 47 bf
       -0.08003503 -0.012806814 -0.12347021 -0.77763003
000080 40 c5 86 3d ee e0 9c be 05 14 5d bf 5d 61 40 bf
       0.06580591 -0.30640358 -0.8635867 -0.75148565
000090 e4 8a 8c 3e 71 a7 6d bd 5d 36 d1 bd 41 8f fa ba
       0.27449715 -0.058021013 -0.10215447 -0.0019116179
0000a0 3e 7b 44 bd 6d 52 96 3b 0d 25 71 bf 53 ed 10 bf
       -0.047969095 0.0045874626 -0.9419716 -0.5661213
0000b0 45 6b 4a bf 9f 98 67 bd f0 ca 03 3b bb 18 03 3d
       -0.7906993 -0.056542035 0.0020109974 0.032006007
0000c0 1e 69 a9 3f 56 05 41 3f 51 8e 35 3d 4c 7f 1a be
       1.3235204 0.75398767 0.044325177 -0.15087622
0000d0 d2 88 a9 be 8e 9d ca 3e 7f 98 0c 3d 89 e1 4a be
       -0.33112198 0.3957333 0.03432512 -0.19812597
0000e0 90 9f 03 bd c5 3f 3b bd d6 5e 0e bd 87 4b 37 3c
       -0.032134593 -0.045715112 -0.03475841 0.011187441
0000f0 19 a8 86 3e bb f9 87 be 66 86 32 3e 5d 0f 55 3d
       0.26300123 -0.26557717 0.17434081 0.052016605
000100 fd 66 24 bc d7 3f 5d 3c 13 cd 65 3e 33 1f 1d bf
       -0.01003432 0.01350399 0.22441511 -0.6137573
000110 d7 03 d3 3d c3 31 ad be b1 7a 9c bf 13 2a 9a be
       0.10303467 -0.33827028 -1.2224942 -0.30110225
000120 48 79 5e 3d 92 16 df be 2f 8a 1a 3d bd c3 70 bc
       0.05431488 -0.43571907 0.03772944 -0.014695105
000130 92 45 0c 3d 1c 4c 37 bb 8d 0b b3 3d cb 4e 05 3e
       0.034246035 -0.0027968949 0.087424375 0.13018338
000140 d6 99 46 bb 6c 19 c2 bb 31 17 3b bc 5f a6 3f bc
       -0.0030304096 -0.0059234407 -0.0114191035 -0.011697381
000150 75 f0 08 3e 55 09 c9 3e e5 33 1a 3e 83 da e3 ba
       0.13372977 0.39264932 0.15058859 -0.0017383847
000160 60 9a 93 3e b6 4e 8c bc 95 f5 11 3d fb e9 16 3e
       0.28828716 -0.017127376 0.035634596 0.14737694
000170 f3 33 34 bd 4b c6 28 ba 66 d5 98 3a 6a 70 56 b9
       -0.043994855 -0.00064382394 0.0011660277 -0.00020450508
000180 39 db 45 3f bb 9c d9 3c 27 f1 7e 3c 55 99 c6 b9
       0.7728763 0.026563993 0.015560425 -0.00037879744
000190 78 60 0d 3c d4 6b ac bc c2 00 6e bf 61 84 2d 3d
       0.008628957 -0.02104751 -0.92969906 0.042362574
0001a0 bb 91 ad bd cb c3 c6 bd 78 73 6f bd 0f c1 8e be
       -0.084750615 -0.09705313 -0.05845973 -0.27881667
0001b0 80 f3 1b be 4a f8 2c bf ed 55 87 3d ff 42 2d 39
       -0.15229607 -0.6756636 0.06608186 0.00016523524
0001c0 65 be e8 bb 61 67 62 3c 74 74 a9 3e 6e 1d ac 3e
       -0.007102775 0.013818593 0.3309666 0.33616203
0001d0 36 85 84 3e 80 6e 5d bd 35 2e 82 3d 71 8f f7 bc
       0.25882882 -0.05406046 0.063564695 -0.030219765
0001e0 0a bf 88 3e 4b 55 2a bf 74 da 8f 3d 12 f9 b5 be
       0.2670825 -0.66536397 0.070240885 -0.35541588
0001f0 a7 66 ed be 17 83 87 bf fb c6 18 3f dc a4 72 bf
       -0.4636738 -1.058688 0.5967862 -0.94782805
000200 c3 bb 36 be 0a e2 b4 3d cc da df 3c 47 a5 4b bc
       -0.17845063 0.08832176 0.02732601 -0.012429542
000210 0e 6a 95 bd eb 8e 84 3e 76 dc 5b 3e c7 3b b0 bc
       -0.07295619 0.25890288 0.21470818 -0.021512879
000220 ee eb 3f 3d 74 e0 c1 bc 01 f4 ac bf 1b b4 ab 3f
       0.04685586 -0.023666598 -1.3511964 1.3414339
000230 33 a4 07 be 59 b6 a2 bd b6 52 e6 bd 07 6c 5c bf
       -0.13246231 -0.07944936 -0.112462446 -0.86102337
000240 c0 3f 27 be 36 a9 25 3e 5e 13 45 3e 77 bf 90 3b
       -0.16332912 0.1617783 0.19245669 0.0044173556
000250 95 7f c2 bb 13 db 8c bb d7 5f 3b 3f 97 c0 28 c0
       -0.005935619 -0.0042985766 0.73193115 -2.6367548
000260 db ae 33 be 96 42 72 bc 8c 6e 0c be ba 6f 63 3c
       -0.17547171 -0.014786383 -0.13714045 0.013881618
000270 77 92 a1 be 8e f0 9b 3f 03 f5 95 3c 4c 96 ec 3d
       -0.31557056 1.2182786 0.018305307 0.11552104
000280 ff 36 63 3e b3 bb e1 ba 1b 4c 72 be 46 2f a1 bd
       0.22188948 -0.0017222076 -0.23661844 -0.07870345
000290 43 25 c7 3d 6a e3 6c bc 26 fe 45 3d 29 ea a6 bc
       0.09723904 -0.014458517 0.048338078 -0.020375328
0002a0 70 2f 32 3e 89 a5 eb 3e 08 67 0a be 70 30 6a bd
       0.17400908 0.4602473 -0.13515866 -0.0571751
0002b0 dd d2 83 bc ab 16 9d bb 51 a3 16 bf b5 d8 38 bf
       -0.016091758 -0.004793962 -0.5884295 -0.7220567
0002c0 34 96 e9 bc 42 72 5f bd ba 11 9f 3d 24 7b 46 bf
       -0.028514005 -0.054552324 0.07767053 -0.7753165
0002d0 40 57 5b be 99 bf d2 3e 5f a9 6c bd f8 b0 67 bc
       -0.21420002 0.41161802 -0.057778712 -0.014141314
0002e0 ce 2b f7 3a cd c3 4b bc 57 fd ab 3d 37 6b ce 3e
       0.0018857659 -0.012436819 0.0839793 0.40316173
0002f0 65 05 6d be 08 46 a3 3c 60 34 33 bd 06 21 2c bc
       -0.23146589 0.019930854 -0.04375112 -0.01050592
000300 d7 75 f7 3e a0 b9 fd 3f 2f 58 51 3d b5 23 32 3e
       0.48332092 1.9822273 0.05110949 0.17396434
000310 d1 20 90 bb 93 de 47 3e fd a7 2a 3d bf 34 83 3e
       -0.0043984433 0.19518499 0.041664112 0.2562618
000320 25 bf 01 be 7a fb 44 3c 2b eb 0d 3d c7 32 32 bc
       -0.12670572 0.012022847 0.0346481 -0.010876364
000330 a2 02 3e 3d 1d 2e ca be 1b 71 9f 3b 3f b5 69 bc
       0.04638923 -0.39488307 0.004865778 -0.014264404
000340 1c f6 3d 3d 99 60 ba bb 41 f0 fd 3e 5f 1a 9f 3f
       0.046377286 -0.005687785 0.49597362 1.2429923
000350 5d ba 04 be 9a 7d 32 3e 62 82 57 bf d8 6d 0e 3d
       -0.12961717 0.17430726 -0.84183323 0.034772724
000360 1b 8b 2f 3e 43 d7 be 3d 9b 6b 1e be a3 db 8e bc
       0.17142908 0.09318402 -0.15470736 -0.017438715
000370 27 d8 a9 b9 b1 78 59 bc 5c 81 08 be 7f a0 ab bd
       -0.00032395238 -0.013273404 -0.13330597 -0.083802216
000380 60 61 17 40 c0 e1 c3 bd a6 d4 2f bd 58 c8 f9 3d
       2.3653183 -0.09564543 -0.042927407 0.12196416
000390 d7 a5 bf 3d ae a5 89 bd 03 78 a7 3b 4b 9c 7f bd
       0.09357803 -0.06721054 0.005110742 -0.062404912
0003a0 64 28 56 bf 2d 28 4d 3f e8 97 53 bd 65 fb 75 3b
       -0.8365538 0.8013943 -0.05165854 0.0037533876
0003b0 22 0e 3c bc f4 3d a4 bc 67 11 9e bc 5f f7 e8 3b
       -0.011477979 -0.020049073 -0.019295407 0.007109567
0003c0 04 58 b7 3c 63 80 0b bd 27 6a 9b 3c b7 a1 d7 bb
       0.022380836 -0.034057986 0.018971516 -0.006580557
0003d0 53 52 cf bb c5 1b bc bb 1f 17 76 be b6 90 07 be
       -0.0063269525 -0.005740615 -0.24032257 -0.13238797
0003e0 43 bc 8a be fc d2 54 bc 6b 4b b9 bf ec ec 9d bf
       -0.27096757 -0.012989756 -1.4476141 -1.2337928
0003f0 80 f4 d4 3e 90 8e f3 bf 3c 35 5e be 75 f6 fb 3c
       0.4159279 -1.9027882 -0.21699995 0.030757168

feature_network.0.bias f4 [64]
000000 c9 9e 70 bf f2 84 8a 3e c0 07 9f bf da 08 3f be
       -0.93992287 0.27054554 -1.242424 -0.1865572
000010 09 c2 94 3f 13 a9 b2 3f ab 8b 3e 3e 2f 90 ec be
       1.1621715 1.3957847 0.18607967 -0.46203753
000020 5e bf 6e 3e 8c ad 5c bf 4e 37 20 3f d3 4e b6 3f
       0.23315188 -0.8620231 0.6258439 1.4242805
000030 7f e8 73 bf 2b 7b c9 3f 25 92 65 bf 56 6a bd be
       -0.95276636 1.5740713 -0.89676124 -0.3699519
000040 46 5b ed bf 86 af 17 3f 4d 1a 70 3f 1c 76 23 bf
       -1.854348 0.592522 0.9379013 -0.63852096
000050 fb f0 13 bf a5 19 ba bf aa cb 4f 3f 30 8a 2b bf
       -0.5778958 -1.4539076 0.8117014 -0.6700773
000060 63 91 88 3f d3 5e d4 3f e6 ac 17 3e 6a 56 e2 3e
       1.0669369 1.6591438 0.1481205 0.44206554
000070 85 95 b7 bf e8 c2 03 c0 c0 be 3e bf e7 f8 fe be
       -1.4342505 -2.0587711 -0.7450981 -0.49799272
000080 ed f8 67 3f 62 e4 a1 be db e0 45 3f c3 b2 32 bf
       0.90614206 -0.31619555 0.7729623 -0.6980402
000090 49 a0 76 3e d4 d7 a3 be 5d 3f 23 bf 97 e8 dc 3e
       0.24084581 -0.320006 -0.6376856 0.43146202
0000a0 06 16 18 3d f7 a6 ff bf b2 45 d9 3c 0e a1 dd bf
       0.03713038 -1.9972829 0.026522491 -1.7314775
0000b0 af 40 0e 3f b1 b2 1c 3e 34 2d df 3e 7c 03 b3 3f
       0.5556745 0.1530254 0.43589175 1.3985438
0000c0 19 5e c4 be 71 7a 66 be e8 c6 70 bf 36 4f 72 3f
       -0.3835304 -0.22507645 -0.94053507 0.94652116
0000d0 57 d4 0f c0 f1 f9 e5 3b 4f 30 6c bf 31 d1 38 bf
       -2.2473352 0.0070183207 -0.92261213 -0.721942
0000e0 47 04 32 3f e3 04 93 bf c6 96 a4 3f f4 ea c2 3e
       0.69537777 -1.1485866 1.2858512 0.3806988
0000f0 0f b5 22 bf d4 79 4d be b1 40 05 40 fe b0 92 3f
       -0.63557523 -0.20066005 2.0820735 1.1460264

feature_network.2.weight f4 [128, 64]
000000 25 06 01 3e db 01 d3 be c1 ec de bd ab 3e 17 bd
       0.126 -0.41212353 -0.10885001 -0.036925
000010 8f 47 0b bd 58 f5 94 3d a1 77 30 3d 14 b7 08 bf
       -0.03400379 0.07273358 0.043082837 -0.53404355
000020 a8 96 35 be 60 c7 cb 3d 6f 06 aa 3c 39 63 83 bd
       -0.17733252 0.09950137 0.02075502 -0.064154096
000030 60 05 22 bd 6d 9d a5 3d cd 1c ad 3d bb 84 3d 3d
       -0.039555907 0.08086667 0.08452759 0.04626916
000040 8f cf c9 bd 86 b9 f8 be dd d8 7d be 91 17 5b 3e
       -0.09854042 -0.48579043 -0.24789758 0.21395709
000050 aa a5 28 3e 4b 83 61 be 00 d1 09 3d c4 84 bf 3e
       0.16469446 -0.2202274 0.033646584 0.3740598
000060 57 57 55 be c9 c4 08 be 6b 6c 33 3e 72 2a 3d 3e
       -0.20834099 -0.13356318 0.17521827 0.18473223
000070 cf fd 1b bf 53 9f ae 3e 20 42 0c be fb ee ac 3d
       -0.60934156 0.3410593 -0.136971 0.084440194
000080 4e a0 2c be 5c 17 1d be ae 35 d2 3d c0 42 11 be
       -0.16858026 -0.15340942 0.10264145 -0.1418562
000090 a2 35 cb bd d9 0b 04 bd ab 20 9d be 76 f2 d8 3e
       -0.09922339 -0.03223786 -0.30688986 0.42372483
0000a0 43 07 dc be 58 41 05 3e f3 ac 3c bf a6 27 f9 bd
       -0.4297429 0.13013208 -0.737014 -0.121657655
0000b0 7b 42 40 3d 88 17 b5 be 07 75 38 3e f7 fb 91 be
       0.0469384 -0.35369515 0.18013392 -0.28512546
0000c0 a7 e6 9a 3d 8a 46 31 bf 3f 33 10 be 5d 60 03 3f
       0.07563525 -0.6924826 -0.14082049 0.51318914
0000d0 04 55 d7 be 0f 13 2b be c7 ec e4 3d c5 91 23 3e
       -0.4205705 -0.16706489 0.11177974 0.15973575
0000e0 b0 3c f1 bd 99 49 e7 3e 53 6d a4 3e 67 37 4c 3e
       -0.11779153 0.45173338 0.32114658 0.1994301
0000f0 c0 81 00 3e ef 6d 91 3e b0 bc db bd b4 bf 73 3c
       0.12549496 0.28404185 -0.10729349 0.014877249
000100 30 55 81 be 5c d6 10 bf 51 3d 8b bd 86 70 7b bf
       -0.25260305 -0.56577086 -0.067988046 -0.9821857
000110 24 92 b8 be 0d 94 27 3e f2 d8 e9 be c5 06 ff bd
       -0.36048996 0.1636507 -0.4567333 -0.12452463
000120 91 70 46 3e c6 25 eb bd 99 34 a7 bd bb d3 46 3e
       0.19378878 -0.11481814 -0.08164329 0.19416706
000130 f0 39 bd bd 50 3d 86 3e 7a 40 f8 3d f4 30 06 be
       -0.09239566 0.26218653 0.12121673 -0.13104612
000140 25 2f d9 bd 23 99 3b be ce 42 52 bd 3c ec 25 be
       -0.10604695 -0.18320136 -0.05133324 -0.16203398
000150 48 7e 7b be a5 54 96 3d 0a 6f 93 bb 38 7e 25 be
       -0.24559891 0.073403634 -0.004499321 -0.1616143
000160 68 98 8e bd 27 7a e5 3d c5 1f 3d be d9 be 34 3d
       -0.06962663 0.11204939 -0.1846915 0.04412732
000170 ee 5b bf be 31 eb ce be d7 73 8e 3d 71 37 16 be
       -0.37374824 -0.40413812 0.069556884 -0.14669587
000180 5b b1 7c bd f0 b1 98 3d 8f 47 68 bd fc 14 4a bd
       -0.061692577 0.07455814 -0.05670887 -0.04933642
000190 1a b5 16 be 33 d5 89 3d fa a5 15 b9 86 b0 ac be
       -0.14717522 0.06730118 -0.00014271578 -0.33728427
0001a0 28 9e 69 3e 0f 35 90 be e6 f1 1d be 53 7e 0d bd
       0.22814238 -0.2816548 -0.15424308 -0.0345443
0001b0 7b 47 cf bc 69 ec fb 3d 35 c9 30 be 24 db 29 bf
       -0.02530264 0.12300951 -0.17264254 -0.6635001
0001c0 06 4e 82 3d 00 65 ba 3e 21 b3 17 3e 86 87 99 3e
       0.06362538 0.36405182 0.14814426 0.2998621
0001d0 af 88 ac be 38 80 e5 3a f3 2f 0c bd 78 ed e1 bd
       -0.3369803 0.0017509526 -0.034225415 -0.11031622
0001e0 21 1b 5b bd c3 05 ca bd 14 e8 97 3d 46 a6 a5 bd
       -0.05349267 -0.0986438 0.07417312 -0.08088355
0001f0 9b d4 88 3d 09 2d a2 bc dc 15 c9 3d dc 71 50 bf
       0.06681176 -0.019796865 0.098186225 -0.81423736
000200 4d 31 28 be 84 bb ee bd e0 e9 3f 3f f7 dd 1d bf
       -0.16425057 -0.116568595 0.7496624 -0.61666816
000210 8d 73 d8 bd 02 f9 0d bf e3 c0 a1 be 53 4a f8 3e
       -0.105689146 -0.5545808 -0.31592473 0.48494205
000220 5a 3a 82 3d f0 b1 8c be ca 79 70 3e cb 73 63 3e
       0.06358786 -0.27479506 0.23483959 0.2221214
000230 e2 78 2e bf 62 7c 94 bc a1 99 a4 3d 33 8b 00 3f
       -0.681532 -0.018125717 0.08037115 0.502124
000240 6f c2 35 be d7 66 6c bf c2 8c b3 3e d6 3d 87 3c
       -0.17749952 -0.9234442 0.35068327 0.016508978
000250 12 47 0d be 44 45 b3 be dc cd a5 3d 2e 4e f0 3e
       -0.13796642 -0.35013783 0.08095905 0.46934646
000260 b5 c9 0f be 4f d0 3b bf e7 f9 88 be c2 7b e0 3d
       -0.14041789 -0.7336473 -0.2675316 0.10961105
000270 0b 48 13 be 24 d7 5c 3e 17 65 8f 3d 05 00 57 3d
       -0.14382951 0.21566445 0.07001703 0.052490253
000280 64 50 6e 3e 7e d8 a1 be 6e 5d 26 3e fc f1 07 bc
       0.23272854 -0.31610483 0.16246578 -0.00829744
000290 8b fd 55 be 5e 3a 25 3e 69 6b 28 bf d1 a1 14 be
       -0.208975 0.16135547 -0.65788895 -0.14514853
0002a0 db 23 ff 3c bd e3 40 3e 1e 9f 94 3e 32 4d 81 bc
       0.031145027 0.18836875 0.29027647 -0.01578388
0002b0 02 67 f6 bc 55 79 3a 3e 39 04 2f 3d d4 e5 39 bd
       -0.030078415 0.18210347 0.042728636 -0.045385197
0002c0 b2 97 43 be c3 38 80 3d cb 74 e7 3c e0 be c5 3d
       -0.19100836 0.062608264 0.028253933 0.09655547
0002d0 46 c3 f1 be e3 2f 09 3e 94 c0 92 3e 07 b3 20 bf
       -0.47219294 0.13397174 0.2866255 -0.62773174
0002e0 df 64 a7 bf b1 cc c7 3c 4c 14 fc bd c3 4b 9d bc
       -1.3077658 0.024389597 -0.12308559 -0.019201165
0002f0 a2 50 91 be 0e 7d 90 3d 69 c2 fc 3e a3 bd 46 3e
       -0.2838183 0.07055102 0.49367073 0.19408278
000300 5c b9 50 bd fc 1f 4d 3d 3b 3c 5c bf ad e9 cb 3e
       -0.050958022 0.05007933 -0.86029404 0.39826718
000310 16 ac 6f 3d 0e 96 89 3e 42 72 8e 3e 4d 27 88 be
       0.058513723 0.26872295 0.27821547 -0.26592484
000320 dc 60 1d be fe f6 37 3e cf b9 bc bd 83 07 5b be
       -0.1536898 0.17965314 -0.09215128 -0.21389584
000330 65 c2 43 3e 32 9e 77 be 58 5e ec 3d 9a f5 a8 3c
       0.19117124 -0.2418144 0.11541432 0.020624924
000340 36 d4 23 3d 96 9f 63 bd ee e6 7b be 16 7d c2 bd
       0.039997302 -0.055572115 -0.24599811 -0.094965145
000350 58 82 24 be 44 7f 0d 3c 06 2a 44 3d 47 71 b4 3b
       -0.16065347 0.0086362995 0.04789164 0.005506668
000360 fb c7 92 3e 34 bc fb 3e 0e 18 00 be a3 30 f3 bd
       0.28668198 0.49167025 -0.12509176 -0.11874511
000370 2d 5c 8d bd fa ca 40 be e8 cf 0e be c6 10 13 3d
       -0.06902347 -0.1882743 -0.13946497 0.03590467
000380 90 04 3d bf 07 9f 23 be 9a e7 8c 3e 38 d9 34 3e
       -0.73835087 -0.15978633 0.27520448 0.17660987
000390 09 5b 09 3e fa ae b1 3c d2 39 0d 3f 71 a8 81 bd
       0.13413633 0.02168988 0.5516635 -0.06330956
0003a0 cd 3c e5 b8 2e 29 0d bf 92 eb 02 bf 7e 00 89 bd
       -0.00010930896 -0.5514096 -0.511407 -0.06689547
0003b0 38 02 ec bc c7 45 12 3e ed 95 e9 3e fe 87 63 bf
       -0.028809652 0.1428443 0.45622197 -0.8887938
0003c0 23 1c 8d 3d 30 0a ee 3d eb e7 f7 bd 90 43 f3 3d
       0.06890132 0.11623037 -0.12104782 0.11878121
0003d0 2a 83 41 be d0 56 9a 3d aa 92 ae be bf 26 b9 be
       -0.18897691 0.075360894 -0.3409627 -0.36162373
0003e0 20 82 f7 3d 43 64 90 3e f6 26 e9 3d 03 41 5e 3e
       0.12085366 0.28201494 0.11384384 0.21704488
0003f0 74 48 ed bd 2b 85 52 3c 24 c7 32 bf 28 98 28 bd
       -0.11586085 0.0128491325 -0.69835114 -0.041160733

feature_network.2.bias f4 [128]
000000 31 80 f8 3e b2 8a c3 3f ce 68 ce 3e fe bf 02 be
       0.48535302 1.5276701 0.40314335 -0.12768552
000010 44 49 27 3f ba b5 b9 be 3b 2f 13 3e c2 17 6c bf
       0.6534617 -0.3627146 0.14373486 -0.9222375
000020 7a 33 12 3e 48 22 c0 3e 05 e6 1f bf 95 ac 18 bf
       0.14277449 0.37526155 -0.62460357 -0.5963834
000030 90 49 b3 3d 8a 7f 1f bf d8 9e 69 bf a4 c9 e0 be
       0.08754265 -0.62303984 -0.91258 -0.4390384
000040 5d 54 62 3f 9e 4b cb 3d b7 7e 8d 3f 19 ae b3 be
       0.8840998 0.09926532 1.1054295 -0.35093763
000050 23 e8 82 3e 95 96 0e bf 7f 84 4d 3e 77 12 b5 bf
       0.2556773 -0.5569852 0.20070074 -1.414626
000060 cf 93 7e 3f 28 8c ed 3e 11 e1 1c 3f 0d bf 36 bf
       0.9944429 0.46395993 0.61280924 -0.7138527
000070 da f0 04 be 57 a1 01 3f 9a b8 a3 bf f8 fd aa bf
       -0.12982503 0.5063681 -1.2790711 -1.3358755
000080 9d 0a 7f 3f 76 9b 89 3e 7c fe a2 bf 28 97 ad be
       0.9962557 0.2687642 -1.2733912 -0.33904386
000090 a0 43 45 be 24 57 76 3f 3e 7a 95 bf fe bc 3b 3f
       -0.19264078 0.96226716 -1.167793 0.73335254
0000a0 bf 7b 49 3e 79 b7 75 3f bc 67 c0 be dc 61 6f 3e
       0.19676112 0.9598308 -0.37579143 0.23377174
0000b0 29 13 2a be 65 9e c9 3e 3f 6c 4f bf 36 fe 9c be
       -0.16608872 0.39378658 -0.81024545 -0.30662698
0000c0 fa ee a7 3e 8d fc 91 bf 70 87 73 3e 17 1a d1 be
       0.32799512 -1.1405197 0.23782134 -0.40840217
0000d0 41 69 aa 3f 9b b2 b4 3f 7a 28 56 3e b3 17 50 bc
       1.3313371 1.4117006 0.20913878 -0.012700963
0000e0 1b 30 de 3e 71 cf df 3e 92 9d 01 be 5e 84 cf 3e
       0.43396077 0.43712953 -0.12657765 0.40530676
0000f0 4e f3 81 be 38 64 cb 3e 5e 85 80 3f c6 7c 17 3f
       -0.2538094 0.39724898 1.00407 0.59174764
000100 bb 2d 81 bf 66 f8 a4 3f e7 de de be 3d 62 9b bc
       -1.0092081 1.2888305 -0.43529436 -0.018967742
000110 8f c9 38 3f dd 73 30 3f 79 6f 44 bf d7 6e 93 3e
       0.72182554 0.68926793 -0.76732594 0.28795502
000120 a7 bf 19 3f 6a d9 21 bf 85 4d dd 3e 54 13 84 bd
       0.60058063 -0.6322237 0.43223205 -0.06448999
000130 8e 16 07 3f 93 96 96 3f 52 ea 96 bf 20 c3 85 bf
       0.5276879 1.1764702 -1.1790259 -1.0450172
000140 15 76 ce 3e 5d ec 65 3f 69 e2 09 3f 9f bf 5e 3f
       0.40324464 0.89813787 0.538611 0.8701114
000150 8c 45 b0 be c8 a3 89 bd 70 fe 84 3f 23 ad be 3f
       -0.3442806 -0.06720692 1.0390148 1.4896587
000160 70 98 bb be e4 f5 10 3f d2 bc ab bf b3 fd bd 3e
       -0.36639738 0.566252 -1.3416998 0.3710762
000170 10 87 d8 bf 9c 2f 6a bf d6 d3 0f bf 31 58 0d bf
       -1.6916218 -0.91478896 -0.5618261 -0.55212694
000180 12 40 12 3f 18 19 7c bf d5 b4 1e 3f b5 77 db bd
       0.57129014 -0.9847579 0.6199468 -0.10716192
000190 92 43 bd be 72 cd f8 3e 56 8a d6 3f 29 f5 bc 3f
       -0.36965615 0.48594242 1.6760967 1.4762317
0001a0 89 64 2e bf 5c 0e cc bf 7f ec 0b 3f 53 60 42 bf
       -0.68122154 -1.5941882 0.5465774 -0.7592823
0001b0 5b b2 22 3f 69 0c 1d bf cf bf 95 bf 99 d5 86 3f
       0.635534 -0.6134706 -1.169916 1.0533935
0001c0 1a 62 ea be 73 ba a8 bf 99 dd 83 3e eb d5 9f 3f
       -0.4577797 -1.31819 0.25755003 1.2487158
0001d0 2d a1 51 3f 10 08 21 3e 94 c1 69 be 05 81 bc be
       0.8188656 0.15725732 -0.2282775 -0.36817184
0001e0 76 95 cf 3f 4a 74 63 3f 9d 74 08 3f fd 25 0a bc
       1.6217487 0.8884932 0.5330294 -0.008431909
0001f0 2f fb 80 3f 56 e9 6b 3f 55 0b 04 3f 01 8c c3 bf
       1.0076655 0.9215292 0.5157979 -1.5277101

value_stream.0.weight f4 [128, 128]
000000 aa aa 46 3d 96 b5 d9 3e ec 08 8e 3d 9d ce 28 3c
       0.0485026 0.42521352 0.069352955 0.010303167
000010 19 0b c0 3d 8e c3 eb 3d 92 f3 77 bf ca 08 0e 3e
       0.09377117 0.115119085 -0.96856034 0.1387054
000020 0a 08 68 be a3 fc 4e be 15 db e2 bb f5 0b 8e 3d
       -0.22659317 -0.20213561 -0.0069230893 0.069358744
000030 f9 77 aa bc 73 a4 0a c0 34 ce 9c 3e ce 12 89 bd
       -0.02080916 -2.1662872 0.3062607 -0.0669304
000040 bc 91 1e 3d 2c b4 81 3e ce 40 aa 3d 07 9f b3 be
       0.038713202 0.25332773 0.08313142 -0.35082266
000050 a4 e0 1e be 88 7d 14 3d 56 61 96 3e 41 d9 75 be
       -0.15515381 0.03625253 0.29371136 -0.24008657
000060 88 e5 b6 be 4b 5a c3 be 69 c4 06 3e 84 58 d8 3e
       -0.35721993 -0.38154826 0.13160862 0.42255032
000070 bb 67 92 3e a7 51 60 3e d0 ef 66 be 5c eb c0 3c
       0.28594765 0.21906148 -0.22552419 0.023549728
000080 e0 93 64 be 64 0e 5d be 39 71 e6 3d 92 12 ac be
       -0.22322035 -0.21587521 0.11252064 -0.33607918
000090 9c 26 9a bc 67 07 0b be 01 47 1c be 4a a5 aa 3e
       -0.018817239 -0.13577043 -0.15261461 0.3332923
0000a0 2f 71 a2 be 95 d7 19 bf db 7c 0b be 0d f9 6e 3e
       -0.31726977 -0.6009458 -0.13621847 0.23337193
0000b0 b8 25 6e be 2c 1a 12 3c 95 20 a6 3e 5d 1f 5b bf
       -0.23256576 0.008917373 0.32446733 -0.8559473
0000c0 be bf 22 be c3 1b f6 bf 2f c8 a0 be 92 a9 2c bf
       -0.15893456 -1.9227222 -0.31402728 -0.67446244
0000d0 9e 29 8d 3d 6a c2 f0 bc 29 75 1a 3d 6e f9 47 be
       0.068927035 -0.029389579 0.03770939 -0.19528744
0000e0 bf 85 14 bf 3c f9 1d bf e3 e3 ac 3b 4d 34 e2 be
       -0.5801658 -0.61708426 0.0052761897 -0.44180527
0000f0 14 92 9b bc b2 da cc 3d 14 c8 84 3e 96 25 89 3d
       -0.018990554 0.1000265 0.25933897 0.06696622
000100 6d 77 7a bd 5d a1 64 be 77 f2 50 be 4d 60 9d 3d
       -0.06114905 -0.2232718 -0.20404993 0.076843835
000110 b0 4f 56 be ce f7 16 bf 70 13 e1 3d ef 31 ce 3d
       -0.20928836 -0.5897187 0.109900355 0.10068118
000120 af 45 ea bd e7 5f 6e 3b d4 04 b6 bd 5e a5 0c be
       -0.11439072 0.003637308 -0.0888764 -0.13734958
000130 00 21 bf 3e 6f e7 a8 3e 1c 09 be be 79 1f b3 3e
       0.37329865 0.3298907 -0.37116325 0.3498495
000140 9f 47 ee 3b a2 60 00 bf 6b b9 cd 3d 53 67 98 be
       0.0072717215 -0.5014745 0.10045131 -0.2976633
000150 b6 0a 88 3e ac f8 5c 3d 16 0b 10 bd bc c2 df be
       0.26570672 0.05394809 -0.035166822 -0.43703258
000160 e6 58 fa 3e 05 f2 8b be 52 fe 35 be 19 84 a7 3e
       0.4889595 -0.27333084 -0.17772797 0.3271797
000170 f6 9f d1 3d 82 aa 31 c0 b8 93 f8 bd b1 6f 12 be
       0.10235588 -2.776032 -0.1213755 -0.1430042
000180 d2 7f 71 3d dd d1 26 bf 72 dc a9 3d 60 37 d1 be
       0.05895979 -0.65163976 0.08294 -0.4086256
000190 40 92 ce 3e 09 39 84 bf ce 17 ed bc ef 5d 1e be
       0.40345955 -1.0329906 -0.028942015 -0.1546552
0001a0 6c a1 e0 bd 0c 57 f6 be 1b 15 64 bf 35 21 0a 3e
       -0.10968289 -0.48113286 -0.89094704 0.1348923
0001b0 0a e3 cc 3e 27 05 ef bd 66 19 aa 3e 06 9c 7b bc
       0.40016967 -0.116709046 0.33222502 -0.015357023
0001c0 12 0b 9f 3d db cf f4 bd df 1d 2a bf c0 04 8b bd
       0.07765783 -0.11953708 -0.6645183 -0.06788015
0001d0 75 ca 34 3e fc f0 28 bf 52 11 5c 3e 29 45 ad 3c
       0.17655356 -0.6599271 0.21490982 0.021151142
0001e0 3a 0f 7a 3b ec be 80 be b4 cd 23 3d 60 4c 13 3e
       0.0038156048 -0.25145662 0.039991096 0.14384604
0001f0 9a 1b a0 be 1d 27 7d 3c 6f f4 b8 bd 40 ba 84 c0
       -0.31271058 0.01545122 -0.09030997 -4.1477356
000200 33 92 92 3d b3 0a 92 bd 0c 79 a7 bd 64 52 4f bd
       0.071567915 -0.07130947 -0.08177385 -0.050615683
000210 92 70 a4 bd 5c 43 02 bf fe 36 06 bd 6b 14 ce be
       -0.080292836 -0.5088403 -0.03276729 -0.40249953
000220 c2 42 9b 3a b4 fd 44 be d1 a1 30 be 51 7f 49 bf
       0.0011845457 -0.19237405 -0.17249228 -0.78709894
000230 f6 6b 4c 3e 31 55 fe bf 34 66 9d bd 69 fd 2b 3d
       0.19963059 -1.9869748 -0.07685509 0.041989718
000240 6f fe b1 bd 34 da 1a bf 26 4d 33 3e 18 82 6a be
       -0.086911075 -0.604892 0.17509899 -0.2290119
000250 06 a7 08 bd 56 88 b8 bd 84 3d c9 be d7 fd fd be
       -0.03336241 -0.09010379 -0.39304745 -0.49607727
000260 65 35 a2 3e e0 c9 68 3d 46 fe b6 be be 7f dc be
       0.31681362 0.056833148 -0.3574087 -0.4306621
000270 e3 24 15 3e 3b 01 83 3e 75 6c 36 be 6e ef 01 be
       0.14564852 0.25586876 -0.1781481 -0.12688991
000280 be 6f 92 3e 19 72 97 be 11 91 40 bd 26 32 2f bd
       0.28600878 -0.29579237 -0.047013346 -0.042772435
000290 2f 04 10 c0 fa ed 90 3e f6 f4 99 be 59 7e 99 3e
       -2.2502553 0.28306562 -0.30069703 0.29979208
0002a0 77 a9 58 be fc a8 df 3c 2c 27 23 bf c6 e0 59 3d
       -0.21158396 0.027302258 -0.63731647 0.053192876
0002b0 98 e7 4b be f5 08 85 be fe e1 b3 3d 29 de e2 3e
       -0.19912565 -0.25983396 0.08783339 0.4431012
0002c0 13 5c 1a be 5f 3f 74 3d f1 ec 38 bd a2 29 03 bf
       -0.15074186 0.059630748 -0.04514784 -0.512354
0002d0 ce 6b 9d 3e 8a 2b 33 3e 87 84 b0 bf 06 60 d3 be
       0.3074631 0.17497078 -1.3790444 -0.41284198
0002e0 6b 48 b1 3d ae 67 c5 3d d2 0b 33 bb f7 37 84 3e
       0.08656391 0.09638916 -0.0027320278 0.25823948
0002f0 cf 64 3c be e4 e8 e2 be d9 08 89 3d 1f 1d 20 3e
       -0.1839783 -0.44318306 0.06691141 0.15636109
000300 22 67 87 bc 44 e1 d1 3e 2e 94 2b 3f 77 25 30 be
       -0.01652867 0.40992177 0.6702298 -0.17201792
000310 23 f6 33 bd 24 52 20 3e 9c 1b 14 be dd 27 21 be
       -0.043935906 0.15656334 -0.14463657 -0.15737863
000320 63 02 aa 3e c4 39 6a be a9 ea 6d 3e 0e 5e c2 3d
       0.33204946 -0.22873598 0.23234047 0.09490596
000330 e5 bb c7 bd b2 4e b2 3d 98 a6 59 3e 28 67 21 bf
       -0.09752635 0.08706416 0.21254957 -0.6304803
000340 a7 4b 8d be 18 27 24 bc c5 b7 c6 3d c7 68 1b 3e
       -0.2759678 -0.010019086 0.0970302 0.15176688
000350 8f 91 b1 bd 06 06 8b bc 15 5d 0c bf 48 5c b2 3e
       -0.08670341 -0.016970646 -0.5482953 0.3483603
000360 68 61 05 c0 ee 77 12 bd 05 6a 27 be 76 9f 45 bd
       -2.0840702 -0.035758905 -0.16349037 -0.048247777
000370 f0 bf cb 3d 7e e7 16 3d 18 70 42 be 2b 14 59 be
       0.099487185 0.036841862 -0.18988073 -0.211991
000380 08 7b cc be cc a9 b6 bf f0 86 7c 3c b8 31 f6 3e
       -0.39937615 -1.4270568 0.015413031 0.48084807
000390 2c fe 99 be d6 1f 1e 3f 8d d6 cd bd e5 39 1e be
       -0.3007673 0.6176733 -0.10050688 -0.15451773
0003a0 18 4c df be 8e 3d 12 bd 6a 03 e2 bd a5 06 23 3e
       -0.43612742 -0.035703234 -0.110358074 0.15920503
0003b0 ef 4f d2 be 30 b2 07 be 07 18 77 be 99 1f f8 bd
       -0.4107661 -0.13251567 -0.2413026 -0.12115402
0003c0 74 02 e1 bd 8d ac 60 be 7b bd 2f be 07 b9 5a 3d
       -0.10986796 -0.21940823 -0.17162125 0.053399112
0003d0 5d 5f 5a 3e 0a 63 13 be 1a b8 49 be 3f 65 d4 3e
       0.2132544 -0.14393249 -0.19699135 0.41483495
0003e0 80 0c 25 bf 95 30 a8 bc 6d 5c 51 3d 6f 58 03 bd
       -0.644722 -0.020530978 0.051113535 -0.03206676
0003f0 83 e9 47 3e ba 5c 77 3e 29 f7 d4 3e d6 a3 9d 3e
       0.19522671 0.24156466 0.41594818 0.3078906

value_stream.0.bias f4 [128]
000000 ed fb 21 3f 31 19 6c 3f 53 55 6d 3f df 92 0c 3f
       0.63275033 0.9222594 0.9270832 0.5491161
000010 c0 e4 19 3d 01 32 3a be d4 39 7e bd dd 71 87 bf
       0.03757167 -0.18183137 -0.062066868 -1.0581623
000020 59 1c 78 bb eb 62 04 3f 0c 03 45 bf 85 85 3f bf
       -0.0037858693 0.51713437 -0.76957774 -0.7481311
000030 5b 25 2b 3b 4d 27 f3 3e 1c 1f 04 be b5 33 53 3f
       0.0026114795 0.47490922 -0.12902492 0.82500774
000040 df 69 52 3f fa 87 d2 3d 40 d4 fe 3d 8e b8 db 3e
       0.82192796 0.10279842 0.12442827 0.42914242
000050 f0 e4 4b 3d a7 6a 6c 3d 57 8f 41 3d b3 96 24 bd
       0.04977888 0.0577189 0.04725584 -0.04018278
000060 2e c5 88 3f 08 51 80 3f bf cd 85 3e ad cb 89 3f
       1.0685174 1.0024729 0.26133534 1.0765282
000070 6f 7e 3c 3e 96 ad ba bd 0a 9f 9a be 90 c8 0e bf
       0.18407606 -0.0911514 -0.30199462 -0.55774784
000080 10 64 f8 3e 9e 05 21 bf 1e f2 d2 bd 5b f6 b3 3f
       0.48513842 -0.62899196 -0.103000864 1.4059557
000090 e5 04 dd bd 5b ab 35 bf b3 5d 69 3e 86 b2 88 3e
       -0.10791949 -0.7096459 0.2278965 0.26698703
0000a0 3f 88 29 bf 73 7a e7 be 1d 6b 19 bf ee db 99 3f
       -0.6622352 -0.4521061 -0.59929067 1.2020242
0000b0 ec bc 3a 3e ad d4 60 3f 0f f5 5c 3d 46 c0 47 3e
       0.1823613 0.8782452 0.053944644 0.1950694
0000c0 a0 4c 1b 3f 08 4a 8f 3d 17 a3 8c 3f ee 66 21 3f
       0.60663795 0.06996542 1.0987271 0.63047683
0000d0 9c 2d b0 be 74 cf c8 3e d5 7a 30 3e 2e fa 32 bc
       -0.34409797 0.39220774 0.17234357 -0.010923905
0000e0 ff 21 9c 3e 1e 9b 1b 3f 20 94 0a be 54 b8 b0 be
       0.30494687 0.60783565 -0.13533068 -0.3451563
0000f0 b9 e9 09 3f 7c 75 a0 bd 9d a0 19 3f 2e b0 34 bf
       0.5387226 -0.07834908 0.600107 -0.7058133
000100 e9 a8 ae be 0e 38 54 3f e3 39 f8 3e 53 d5 8c 3e
       -0.34113243 0.8289803 0.48481664 0.27506503
000110 21 f9 03 be 87 99 5a 3f 97 b0 0d 3f 4a 3b 24 3f
       -0.12888004 0.85390514 0.5534758 0.6415297
000120 3e 90 03 3f ad ce 66 bf a8 ed c9 3d 0e c9 2d be
       0.5139197 -0.9015911 0.098597825 -0.16971228
000130 6e eb 35 3f 75 31 a9 3e 49 2e a2 3d 01 57 89 3e
       0.7106236 0.33045545 0.079189844 0.2682419
000140 b1 79 dc 3e e2 48 81 3f d7 af 64 bd 25 70 42 3e
       0.43061593 1.0100367 -0.055831756 0.18988092
000150 9e 9d c6 be 91 ad c2 3d 09 08 e9 be d4 2a 48 3f
       -0.38792127 0.095057614 -0.45513943 0.7819035
000160 e1 9f e5 3e 2d e7 30 3e 6d de 96 bd 14 fb af 3e
       0.4484854 0.17275687 -0.07366643 0.34371245
000170 eb 0d 16 bf aa 02 2d 3f 17 6e ee 3e b6 49 37 be
       -0.5861499 0.6758219 0.46568367 -0.17899212
000180 8c 2e ec 3e d2 37 5d bd ee 85 b4 be cc 31 5d be
       0.46129262 -0.054008313 -0.3525843 -0.21601027
000190 9d 6c de 3e 78 9e ae 3d 5d 1c bf 3d 1f b2 a6 3d
       0.4344224 0.08526319 0.09331582 0.08139443
0001a0 b5 c5 e4 be 39 86 f1 3e 57 7a fc 3d cf 2e bd be
       -0.44682088 0.47172716 0.12328022 -0.36949775
0001b0 83 ad 3f 3f 03 7e 26 3e 72 d4 3e 3f d1 48 fb bd
       0.7487413 0.16259007 0.74542916 -0.12269748
0001c0 fb 56 9d 3f 56 2a 57 3e ce 3d be 3e 9b 89 49 3e
       1.2292169 0.21012244 0.37156528 0.19681399
0001d0 06 b1 3a 3f cf 26 07 3e f9 a2 3e 3e 90 dc 85 bf
       0.72926366 0.13198398 0.18616857 -1.0457935
0001e0 9f 62 d0 bc cf 7e 28 3f 31 6d bc 3e cc 1f dc 3d
       -0.025437651 0.65818495 0.36802056 0.10748252
0001f0 89 88 15 3f 47 70 de 3e 7e 5d 93 3d d4 bd c9 3e
       0.5841146 0.43445036 0.071955666 0.3940264

value_stream.2.weight f4 [1, 128]
000000 d7 94 75 3e b1 47 16 3e 67 3a e5 3d a1 9f 47 3e
       0.23982559 0.14675786 0.1119278 0.19494487
000010 92 bf 13 bf 89 57 ea bd 80 dd d1 be 97 3c d7 be
       -0.5771419 -0.11442477 -0.40989304 -0.42038414
000020 da 03 9c 3e f0 f0 d0 3e 5d 93 76 be 82 57 49 be
       0.30471689 0.4080882 -0.24079652 -0.19662288
000030 99 57 33 be 79 6d 92 3e be f2 71 bf 19 18 8c 3d
       -0.17513885 0.28599146 -0.9451102 0.06840534
000040 50 19 00 3e 7f d8 5b 3e 79 ab 26 be 66 a8 13 3e
       0.12509656 0.21469305 -0.16276349 0.14419708
000050 92 6c b9 3e bf 52 9e 3e c6 56 cc 3d 08 66 df 3d
       0.36215645 0.30922505 0.09977488 0.10908133
000060 d6 b4 19 3f 21 3e 9b 3e 59 57 d4 3d d1 b3 ca 3d
       0.6004156 0.30320838 0.10368223 0.098975785
000070 00 9b c5 bd 3c 86 db 3e a6 d2 06 3e d7 43 80 be
       -0.096487045 0.4287585 0.13166294 -0.25051758
000080 64 3c 05 3e 47 49 08 be 2d 53 bf be fa 02 1d 3e
       0.13011318 -0.13309203 -0.37368146 0.15333167
000090 5a a7 15 bf 61 97 31 3e 08 99 8d 3e a4 bb 24 be
       -0.58458483 0.17342903 0.27655816 -0.16087204
0000a0 84 36 38 be 3d cf 04 be f0 6b 38 be 09 49 3f 3e
       -0.17989546 -0.1296968 -0.18009925 0.18680204
0000b0 fe 0c e6 bd 54 6c 07 3e ef 6b 06 bf 77 71 50 bf
       -0.11232947 0.13224918 -0.52508444 -0.81423134
0000c0 80 06 1a bf dc d1 55 3e 4f a0 0d 3f b6 d3 39 3e
       -0.6016617 0.20880836 0.55322737 0.18147168
0000d0 b7 2d c5 bd 65 b6 63 be ba f4 56 be 08 37 49 3e
       -0.0962786 -0.22237547 -0.20991793 0.19649899
0000e0 32 97 1d 3e 66 84 1e be 98 4b 69 be 95 8c bb 3d
       0.15389708 -0.15480193 -0.22782743 0.09157673
0000f0 c0 5e df 3d 01 3c 4f be f7 48 8d be 30 71 64 be
       0.10906744 -0.20237733 -0.2759473 -0.22308803
000100 03 a6 19 bf bf c7 54 3e ed 8a 40 be 69 71 85 be
       -0.6001894 0.20779322 -0.18802996 -0.26063088
000110 6d b4 dd bf 42 a7 60 3e df 88 68 3e 99 de b4 3e
       -1.7320687 0.21938804 0.22708462 0.3532608
000120 e7 86 2e 3e 66 9d 9b be 93 f0 ac 3d c3 99 1e be
       0.17043649 -0.30393523 0.084443234 -0.15488343
000130 87 ea 8a 3d 14 cc 13 be 8f 10 ab be 37 ab a3 3e
       0.06783014 -0.14433318 -0.3341107 0.31966564
000140 8d 94 41 be 8f 7b 7f 3d 2a c7 27 3e 8a db 8d 3f
       -0.18904324 0.062373694 0.16384569 1.1082623
000150 84 75 80 be 87 b8 53 3f 23 a9 00 be d6 9f b3 3d
       -0.25089657 0.8270344 -0.1256452 0.08770721
000160 fd a9 6a be 3f d8 82 3e ab 2b 8e 3d 91 83 cf 3e
       -0.22916408 0.25555608 0.06941923 0.40530065
000170 dc 55 0e be f4 39 ad 3e e0 40 e5 3d 3f d1 a2 3d
       -0.1389994 0.33833277 0.111940145 0.07950067
000180 ee 15 0e be d0 fa da 3d d7 6b 8c be 19 7b 90 3e
       -0.13875553 0.1069237 -0.27426025 0.28218916
000190 81 93 67 be 58 e8 e1 3d 42 c1 85 be 65 75 a2 3d
       -0.22614862 0.11030644 -0.26124007 0.079325475
0001a0 d8 6e 06 be b9 86 81 bf c3 39 3f be 12 c7 9c be
       -0.13128221 -1.0119239 -0.18674378 -0.3062063
0001b0 32 d4 2f 3e 89 02 0a 3f 23 60 a9 3e 54 0b 0b be
       0.1717079 0.5391012 0.3308116 -0.1357854
0001c0 10 4f f6 3d 23 da 61 3e 65 51 a9 be 6c 07 00 be
       0.12026799 0.22055869 -0.33069912 -0.12502831
0001d0 db f3 1e 3e 3d 42 e3 3d 21 6e d7 3d 5f 2c 16 be
       0.15522711 0.11096618 0.10519052 -0.14665364
0001e0 cb f4 6c be bc c5 cf 3d 50 b7 6e be 59 b5 f1 3d
       -0.23140256 0.10145137 -0.23312116 0.118021674
0001f0 27 2f 00 3e f5 3e 76 3e 55 8a d4 bf 3d d0 dc bd
       0.12517987 0.24047454 -1.6604716 -0.10781906

advantage_stream.0.weight f4 [128, 128]
000000 a8 b4 37 be a2 2a a6 3d 89 be 50 be 48 0c c3 be
       -0.17940009 0.081136 -0.20385183 -0.38095307
000010 83 43 aa 3d 9b cc ea be 41 55 6a bc f6 d7 97 bd
       0.08313658 -0.45859227 -0.014302553 -0.07414238
000020 20 f9 2f bd 0e 17 cf bc b4 ba 43 be b4 80 0d bf
       -0.042962193 -0.025279548 -0.1911419 -0.5527451
000030 43 33 ed bc a7 6b e2 3e ba 70 81 3e 04 ac f4 be
       -0.028955108 0.44222757 0.25281316 -0.47787488
000040 b8 83 51 bd 32 63 4f bf 6d ab 39 bf fe c2 30 be
       -0.051151007 -0.81010735 -0.725272 -0.17261884
000050 bd 4a f5 3d 4f fc d1 bc 5a 7e 2b bf f7 1f 26 bc
       0.11977146 -0.025633005 -0.6698967 -0.010139457
000060 58 13 76 be 94 45 10 3f 51 70 27 3e 6e ca 34 3e
       -0.24030817 0.5635617 0.16351439 0.17655346
000070 f4 d5 7f 3e 17 ab 8d bc 67 12 e9 be 80 6e 51 bf
       0.2498396 -0.017293496 -0.45521852 -0.81809235
000080 e1 ce d3 3d 4e 5f 92 be ec bc 9d bf 57 cb 6c bb
       0.103421934 -0.28588337 -1.2323279 -0.0036131942
000090 13 ec 07 bf d2 29 ac bd 60 0d 65 be 0a 8f 0b 3f
       -0.53094596 -0.08406414 -0.22368383 0.54515135
0000a0 85 ef 5b bf 7d 34 5c bf 31 c7 11 be 6d 2e a4 3e
       -0.8591235 -0.8601759 -0.14236142 0.3206667
0000b0 ec 03 3e bd 8b b2 57 3c fe 41 19 c0 cf 74 28 bf
       -0.04639046 0.013165127 -2.3946528 -0.65803236
0000c0 d2 69 78 3c a1 fd 7c 3d 36 d6 80 bd 63 4d 3f 3d
       0.015161948 0.061765317 -0.062908575 0.04670466
0000d0 68 f2 4b 3e 3c 16 bf 3c 43 07 00 bf 19 2b 87 3e
       0.1991669 0.023326032 -0.5001108 0.26400068
0000e0 6a 34 df be bc f0 56 bf 37 1a f1 bd a4 40 30 3d
       -0.43594676 -0.8396108 -0.11772578 0.043030396
0000f0 2a d9 f1 3e 90 ed eb 3e a5 65 84 bc 99 af d0 3d
       0.47235996 0.46079683 -0.01616175 0.101897426
000100 7d 1b 31 3e ae c7 f3 bf 04 6c d4 3e fc 1c bb be
       0.17295642 -1.9045312 0.4148866 -0.3654555
000110 33 9e d3 be 42 27 39 bd a3 53 2b bf ef dc ea 3d
       -0.41331634 -0.045203455 -0.66924495 0.11467921
000120 82 95 c7 bd 9f bb 9b be 1e fa 1b bf bb 8c 1f be
       -0.09745313 -0.3041658 -0.60928524 -0.15581028
000130 5f 1d 8f 3e 14 d6 89 bf 30 42 f2 bf 5b 27 19 bf
       0.27952096 -1.0768456 -1.8926449 -0.59825677
000140 6a be 1f 3e 71 e9 5c be 75 7c 0e 3e e3 07 e2 bd
       0.15599981 -0.21573426 0.13914664 -0.110366605
000150 87 7f 9c bf 77 93 3e 3c ee 8e 18 be 49 6f 8f 3e
       -1.2226418 0.011631838 -0.14898273 0.2801459
000160 e4 38 02 be 59 43 d1 bc 9a c8 cc 3c 50 4d 98 be
       -0.12717015 -0.02554481 0.024997998 -0.29746485
000170 66 15 b0 3c f9 c6 8d 3e cb ad ad 3d 09 2d ba bd
       0.021494579 0.27690867 0.08480414 -0.09090621
000180 d6 9f 5b 3e cd 4c 0e 3d 85 29 c8 bd 49 a9 16 be
       0.21447691 0.03474121 -0.09773544 -0.14713015
000190 c0 e0 a6 be 73 ea f0 be fc cc f7 3e e8 61 3b 3d
       -0.32593346 -0.4705387 0.48398578 0.045747668
0001a0 be 78 83 ba d4 76 0f bf 3a 9e bb 3b 02 28 82 bf
       -0.0010030491 -0.5604069 0.005725649 -1.016846
0001b0 a7 ba 81 be d9 92 bb be b3 d5 7f 3e 91 bc 64 bd
       -0.25337717 -0.36635473 0.24983864 -0.055843893
0001c0 10 5d 14 3e 7d 1d ab 3b b2 aa 4b be d3 90 57 3e
       0.14488626 0.005222021 -0.19889334 0.2105134
0001d0 57 83 e8 3d a2 e1 01 bf a5 94 e3 bd d5 55 cf 3e
       0.11353176 -0.50734913 -0.11112336 0.40495172
0001e0 71 1a 6f 3e 11 75 96 be 75 39 99 be af 1c ab 3b
       0.2334993 -0.2938619 -0.2992665 0.005221925
0001f0 19 73 bc bd a8 66 4d be 16 b0 c0 be c7 e7 cb 3e
       -0.09201641 -0.20058692 -0.37634343 0.3982527
000200 f0 f6 30 be 14 51 11 bc 9a 2b 87 3d f2 a8 03 3e
       -0.17281699 -0.008869428 0.06600113 0.12857416
000210 71 f5 d0 bd ee ee 1e bf 7c 72 8a bf 41 02 0a 3e
       -0.10203064 -0.6208333 -1.0816188 0.13477422
000220 ec b7 ff bd 9e 42 9c 3d 37 66 c0 be 34 6d 80 be
       -0.12486252 0.07629894 -0.37577984 -0.25083315
000230 29 f9 6c 3e 48 32 3b bf fb 0d 29 be 3d 98 f3 3b
       0.23141922 -0.731236 -0.1650924 0.0074339197
000240 8d 26 f2 3e 41 e6 58 be 2e 26 b7 3e 57 2f c1 bc
       0.47295037 -0.21181585 0.35771316 -0.023582144
000250 8e 2f 2a 3e 77 d6 b6 be a2 ee 43 be 52 ef 32 bf
       0.16619703 -0.357105 -0.19134 -0.69896424
000260 60 9d 00 be 34 6f b5 bc 9a d0 8b be a9 fc c3 3d
       -0.12560034 -0.022147752 -0.27307588 0.095696755
000270 fe 86 8a 3e e3 4b 0a bf e4 ce f3 be 08 38 55 be
       0.27056116 -0.54022044 -0.47618783 -0.20822155
000280 e2 13 a7 3e fc e5 b9 3c f9 1f 92 be 37 a2 84 bf
       0.32632357 0.022692673 -0.28540018 -1.0362004
000290 f3 57 b9 bd 9b cc 87 3e 81 54 7d bf 67 7f 0c bd
       -0.09049978 0.2652329 -0.9895707 -0.034301188
0002a0 4c 3e 5b 3d e0 33 b9 be 82 b2 d4 3d 33 62 f9 3c
       0.053526208 -0.3617239 0.1038561 0.030442333
0002b0 9e 9a a7 3d 5d 85 c2 be ec 14 d7 be 0c ac 26 be
       0.08183788 -0.37992373 -0.4200815 -0.16276568
0002c0 22 be 8d bd 12 ce b0 3d de 80 e9 bc 62 52 ea be
       -0.069210306 0.08633055 -0.028503831 -0.45765978
0002d0 d1 b0 4f 3e 32 17 d3 3e 67 4d 6f 3e ce 67 18 bc
       0.20282294 0.41228634 0.2336937 -0.009302093
0002e0 c9 90 03 3e 56 3f 8d be 22 96 62 3e 02 87 56 3e
       0.128482 -0.27587384 0.22127584 0.20949939
0002f0 53 53 5f bf 05 63 b1 bd aa 66 e7 3d bb 32 9c be
       -0.8723652 -0.086614646 0.112988785 -0.30507454
000300 22 74 99 be df d3 f1 bd 61 ef 85 3c b7 b2 52 be
       -0.29971415 -0.11807989 0.016349496 -0.20575987
000310 31 be 88 bd 65 21 a4 3e 6a 98 2a be f0 16 be be
       -0.06676901 0.32056728 -0.16659704 -0.37126875
000320 77 df 58 be 83 15 6f be 15 f2 b1 3e 91 22 49 be
       -0.21178995 -0.2334805 0.34755006 -0.19642092
000330 18 20 47 be a4 c6 06 be 9d e8 72 3e 60 64 6a bd
       -0.19445837 -0.13161713 0.23721547 -0.05722463
000340 ec 59 20 be a9 74 72 3d e1 db 28 be dc 9c 41 be
       -0.15659302 0.059193287 -0.16490127 -0.18907493
000350 a8 e9 11 bf 9b 35 36 be 5c eb 84 3c 0b f0 d6 be
       -0.56997156 -0.17793886 0.01622551 -0.41980013
000360 27 4a 44 be 2d 38 28 3d 54 7c 99 bc df ce 6a be
       -0.19168912 0.0410692 -0.018736042 -0.22930478
000370 88 82 25 be aa b3 ee 3d ff 09 0d 3e 61 ad 31 3e
       -0.16163075 0.11655362 0.13773344 0.17351295
000380 0c 2b 62 bd 38 32 cf 3b 2b 58 73 bf 1b e7 be be
       -0.055216834 0.006323125 -0.9505641 -0.37285694
000390 78 f4 ac be 40 db 3b bf 17 09 a4 3e b2 d2 17 be
       -0.33780265 -0.73381424 0.32038185 -0.14826468
0003a0 a0 91 48 3f 05 e9 08 bc 4c 3b 30 3e ac fd 97 be
       0.78347206 -0.008356337 0.1721012 -0.29685724
0003b0 9b 08 ca 3b 60 41 01 bf 8f 39 a8 bf 02 a9 29 3e
       0.0061655766 -0.5049038 -1.3142565 0.16568378
0003c0 36 48 2c 3e d8 5f 59 be 72 86 84 be 67 67 38 bd
       0.16824421 -0.21227968 -0.25883824 -0.045020487
0003d0 48 b3 07 bf 23 7a 0f 3e ff b3 e5 3d 57 d1 d9 3d
       -0.53007936 0.14011435 0.11215972 0.106356315
0003e0 dd 80 9e 3d df d6 69 bd 6d 43 82 be 75 76 f6 bd
       0.077394225 -0.057089683 -0.25442067 -0.12034313
0003f0 f0 aa 79 be ff fb 5a 3e d4 b6 22 3e c8 db e6 be
       -0.24381614 0.21385191 0.15890056 -0.45089555

advantage_stream.0.bias f4 [128]
000000 62 a6 32 be 25 23 fd bd 5a 6c a8 be 5f d2 41 3c
       -0.17446283 -0.12360219 -0.32895166 0.0118299415
000010 0c 0c 67 bf eb 50 00 3e 3a 48 f3 3d f5 0b 46 be
       -0.9025276 0.12530868 0.118790105 -0.19340499
000020 de 9f 59 bd 8b db fc bd 1a 3b 5c bf 13 f8 9a 3c
       -0.053130977 -0.12346562 -0.8602768 0.01891712
000030 93 ce 96 3e 18 92 21 bf aa 83 c2 3e db ae 1c bf
       0.2945448 -0.63113546 0.37991077 -0.6120431
000040 3d 92 16 bf 6e 04 60 be 81 17 b3 be 84 62 ed 3d
       -0.5881689 -0.2187669 -0.3497887 0.11591056
000050 21 89 85 be d1 5c a1 bd 67 90 29 bd 56 1c b5 3d
       -0.26081184 -0.078790314 -0.04139748 0.08843295
000060 f8 1a 7d bf 03 db 1c bf 7e dc a9 3d 22 b9 ff bd
       -0.98869276 -0.61271685 0.08294009 -0.12486483
000070 a5 c2 98 be 92 5e e7 bd 35 bf b9 3e 3f cd ca be
       -0.29836002 -0.11297335 0.36278692 -0.39609715
000080 21 a9 fc bd aa f8 3d 3a 2d 40 94 bf 02 55 cc be
       -0.12336946 0.00072468317 -1.1582085 -0.39908606
000090 b6 06 98 3e cd 28 3b be 74 5b 2b bf d9 6a c9 3e
       0.2969262 -0.18277283 -0.6693642 0.3933933
0000a0 cb 8b d8 3e cf 87 7c be a9 c4 4d 3f f2 a0 40 bf
       0.42294154 -0.24661182 0.80378205 -0.75245583
0000b0 e9 b6 54 be 20 68 85 be 8e 0b b1 be 90 05 60 bf
       -0.207729 -0.26056004 -0.34579128 -0.8750849
0000c0 50 f7 90 3d 03 34 ac bd 3b 42 31 be 78 b3 e6 bd
       0.07078421 -0.08408358 -0.17310421 -0.112647
0000d0 de 8d 4c bf 18 a9 c7 3e 0a 7a 1d bf 12 5e 25 3e
       -0.7990397 0.38996196 -0.6151434 0.16149166
0000e0 88 a8 9f bf 24 f1 88 be 02 81 1c 3c 5b ad 0c be
       -1.2473307 -0.26746476 0.009552242 -0.13738005
0000f0 fe 38 11 be 15 06 b4 3e 41 a2 84 3e d0 fb d6 be
       -0.14181897 0.3516089 0.2590504 -0.41988993
000100 34 31 36 3e 6a 34 94 bf 6a 56 a1 3d a4 6f 95 3d
       0.17792207 -1.1578496 0.0787781 0.072966844
000110 a2 97 bb be c2 08 88 be af d7 63 3e 62 c1 ad 3d
       -0.36639124 -0.26569182 0.22250246 0.084841505
000120 f9 2a 10 bd 74 e0 bd be 35 d5 fd be 91 f9 6e be
       -0.035197232 -0.37085307 -0.49576727 -0.2333739
000130 72 a7 ee bd 63 5f 2a bf 1f 71 d4 3c d4 b9 94 3e
       -0.116530314 -0.665518 0.025932847 0.29048026
000140 4c 54 2b bf 97 47 8c be 32 31 ae bd ae 1d 15 bd
       -0.669255 -0.2739837 -0.08505477 -0.036405258
000150 df d5 96 3e cb a4 98 bf 10 c2 ec be 15 80 94 be
       0.29460046 -1.1925291 -0.46241808 -0.2900397
000160 3b 46 a0 be 30 4f ca bd 78 97 db be 46 b3 98 bd
       -0.31303582 -0.09878385 -0.42889 -0.07456069
000170 a9 6f cd bb fa 5e 5e bf f7 8d a1 3d fc 34 3e bf
       -0.0062694144 -0.8686367 0.07888406 -0.742996
000180 44 c6 7c 3e 1f 0e 1b bd 68 ca 30 3e df 97 37 3e
       0.24685007 -0.037855264 0.17264712 0.17929028
000190 9f 90 96 3e 03 ea 48 3e 06 68 f8 be d9 b2 69 3e
       0.29407212 0.19620518 -0.48516864 0.22822131
0001a0 c6 c3 9b 3e 76 a6 71 bf 4d 04 11 3e 7e 72 a7 be
       0.304228 -0.94394624 0.14161797 -0.32704538
0001b0 69 a5 08 be 19 1d 21 be a4 d5 2a bb c1 71 57 be
       -0.13344349 -0.15733756 -0.002606728 -0.21039487
0001c0 53 df c7 3e c9 57 87 be 56 1e 72 bf f1 5c 3d be
       0.3903757 -0.26434162 -0.9457754 -0.18492486
0001d0 82 48 12 be b5 d9 59 3c 3c 71 e5 be 0d 55 27 bf
       -0.14285472 0.013296534 -0.44812953 -0.6536415
0001e0 8a fb 32 3e 92 30 00 bf b2 9e a8 3e 43 ff 6d be
       0.17478767 -0.5007411 0.32933575 -0.23241906
0001f0 81 27 35 bf 34 ce 22 bf dd 24 38 bd c2 3a b4 be
       -0.70763403 -0.6359589 -0.04495703 -0.3520108
